assets/model.tflite (tflite, 167952 bytes, 6 tensors)

sequential_1/dense_5/BiasAdd/ReadVariableOp f4 [561]
-0.0017171772 -0.01827245 0.0007657418 -0.011678362 -0.023777012 -0.0023636778 -0.02297322 -0.09495282
-0.017223421 -0.09612463 0.010037025 -0.09231455 -0.0008578629 -0.009612722 -0.0020007188 -0.020456288
-0.04692675 -0.014647666 0.0020955708 -0.031076897 -0.017295849 -0.099034615 0.028742226 -0.023452869
-0.008962674 -0.00227844 -0.010307994 -0.011152086 0.010030375 -0.013530092 0.009805622 -0.09700983
-0.016879497 -0.091070995 0.0057561263 -0.013219482 -0.033879828 -0.09781287 -0.094067335 -0.014150118
-0.024815327 0.029052585 -0.033598825 -0.03555419 -0.008946577 0.00075663335 0.014815161 -0.025776053
-0.005314607 -0.10104318 -0.04407294 -0.039280962 -0.09288064 0.017597323 -0.019510929 -0.09815749
-0.0945828 -0.01026215 0.0124541875 -0.0996082 -0.052585855 -0.018880289 -0.03700303 0.006262116
-0.0029697597 -0.09263452 -0.0042049102 -0.011031572 0.018828532 -0.019532172 -0.001782366 -0.027971806
0.0150088435 -0.017489458 -0.013943685 -0.010616962 0.012759046 -0.00039426156 0.0012910385 -0.023921765
0.026628902 -0.0040208786 -0.095357426 -0.09192579 -0.09270364 0.04340766 -0.02548496 -0.011702997
0.004907996 -0.012305453 -0.016640011 0.015551685 0.0058238376 0.0021216336 -0.019866738 -0.098565966
-0.029425798 -0.004785613 -0.029279107 0.0021947403 -0.09563225 0.021431364 -0.0124190785 -0.0015056715
-0.015811654 -0.0019607185 0.016890587 -0.091537125 0.048405442 -0.09666758 0.007922072 -0.00014504399
-0.0034747643 0.03148833 -0.09206707 -0.00887041 -0.032039795 0.021419907 0.0072149164 -0.023001662
-0.027649764 -0.022898663 -0.09951439 0.01549779 -0.09752656 -0.09643634 -0.010313327 -0.027236257
0.039585125 -0.013755556 0.0037519508 -0.09305173 0.01857565 -0.09400355 -0.09948771 -0.00088470976
-0.09906718 -0.09760512 -0.096848264 -0.03852035 0.039121512 -0.09702632 -0.104895145 0.017255057
-0.09905352 0.016043423 -0.0015958471 -0.021570984 0.034984957 -0.020194344 -0.00749651 -0.02145337
0.0012593152 -0.03046334 -0.011550979 -0.0019794914 0.010348797 0.0018812737 0.022857876 -0.028114926
-0.09022039 -0.0936631 -0.09946008 -0.09496614 -0.092846125 -0.013952073 -0.0970813 -0.028751915
-0.025913782 -0.095819615 -0.004511649 0.00727568 -0.016278956 -0.093228735 -0.015979093 0.025231237
-0.026349036 -0.09226429 0.012007501 0.021634893 -0.09681962 0.047324955 0.010934742 -0.009968035
-0.0009571322 -0.017881261 -0.026278708 -0.09287755 0.0034799639 -0.098935254 -0.012215746 0.01889621
0.0046826685 -0.0131119555 0.0020359012 -0.021107094 -0.0902396 -0.026922962 -0.09325166 -0.0118770385
0.019890629 -0.006419767 -0.10110585 -0.102018446 -0.024229718 0.01121204 -0.02292421 -0.014498218
-0.093852684 0.009238865 -0.090460666 -0.09601882 -0.09955877 -0.0069607445 -0.03160088 -0.002630644
0.025903225 -0.0146053275 -0.008914992 -0.007613012 -0.09824138 0.0276402 -0.1001169 -0.020915153
-0.008755275 -0.09738076 -0.023680001 -0.10044256 0.020805659 -0.004852637 0.013176431 0.0025588926
-0.014673635 -0.0949804 -0.06064512 -0.01666271 -0.02524256 0.021509431 -0.00820191 -0.006262673
-0.0042204093 -0.015713643 -0.028942216 -0.030183056 -0.092277035 0.017292242 -0.03044966 -0.018756073
-0.09471135 0.010123467 -0.0024539686 -0.027183637 -0.025579574 -0.021565616 -0.0011845954 -0.046363275
00000000: e812 e1ba 1bb0 95bc 10bc 483a 9a56 3fbc
00000010: 02c8 c2bc efe7 1abb 5632 bcbc a076 c2bd
00000020: 2218 8dbc fddc c4bd 5672 243c 690f bdbd
00000030: 34e2 60ba ae7e 1dbc 7e1e 03bb f293 a7bc
00000040: 4436 40bd c4fc 6fbc d855 093b fa94 febc
00000050: 06b0 8dbc a9d2 cabd d174 eb3c 3b20 c0bc
00000060: 2ed8 12bc e151 15bb dce2 28bc 3db7 36bc
00000070: 7156 243c 52ad 5dbc c2a7 203c 17ad c6bd
00000080: df46 8abc 6e83 babd e39d bc3b 8796 58bc
00000090: 93c5 0abd 1d52 c8bd 60a6 c0bd e6d5 67bc
000000a0: 8349 cbbc b0ff ed3c ec9e 09bd 45a1 11bd
000000b0: aa94 12bc ce58 463a 4abb 723c 4d28 d3bc
000000c0: 2826 aebb baef cebd d485 34bd 13e5 20bd
000000d0: 3438 bebd 4328 903c 62d5 9fbc cb06 c9bd
000000e0: a1b4 c1bd 9422 28bc a60c 4c3c 62ff cbbd
000000f0: 4464 57bd d6aa 9abc 7d90 17bd 7032 cd3b
00000100: 4da0 42bb 2bb7 bdbd 58c9 89bb c4bd 34bc
00000110: 4b3e 9a3c ef01 a0bc 479e e9ba 2125 e5bc
00000120: a7e7 753c 0d46 8fbc 0e74 64bc c4f2 2dbc
00000130: 510b 513c e4b4 ceb9 1038 a93a 94f7 c3bc
00000140: db24 da3c 93c1 83bb c14a c3bd 9743 bcbd
00000150: 68db bdbd 3bcc 313d d6c5 d0bc edbd 3fbc
00000160: 41d3 a03b d09c 49bc a250 88bc 7fcc 7e3c
00000170: e4d5 be3b 1b0b 0b3b 92bf a2bc f4dc c9bd
00000180: 5f0e f1bc a2d0 9cbb bdda efbc a2d5 0f3b
00000190: d7da c3bd d490 af3c 6479 4bbc f459 c5ba
000001a0: 7187 81bc 667f 00bb 215e 8a3c d177 bbbd
000001b0: c944 463d a7f9 c5bd 94cb 013c f316 18b9
000001c0: dfb8 63bb e8f9 003d a98d bcbd 3255 11bc
000001d0: 293c 03bd cd78 af3c 1b6b ec3b fb6d bcbc
000001e0: c281 e2bc fa95 bbbc 33ce cbbd 71ea 7d3c
000001f0: 01bc c7bd 6a80 c5bd 3bf9 28bc 921e dfbc
00000200: 0324 223d fc5e 61bc 4ae3 753b e891 bebd
00000210: f62b 983c ef84 c0bd 36c0 cbbd deeb 67ba
00000220: bce3 cabd 31e5 c7bd 6258 c6bd 84c7 1dbd
00000230: e13d 203d bcb5 c6bd 44d3 d6bd 7a5a 8d3c
00000240: 92dc cabd 7f6d 833c be2b d1ba a2b5 b0bc
00000250: 634c 0f3d 9c6e a5bc 49a5 f5bb fabe afbc
00000260: 9b0f a53a 418e f9bc 5140 3dbc 5bba 01bb
00000270: 008e 293c 1295 f63a 7140 bb3c 4651 e6bc
00000280: 78c5 b8bd 70d2 bfbd bab1 cbbd 9c7d c2bd
00000290: 1c26 bebd 3c97 64bc 90d2 c6bd 2389 ebbc
000002a0: 2449 d4bc 133d c4bd 74d6 93bb d468 ee3b
000002b0: 725b 85bc b5ee bebd 96e6 82bc bdb1 ce3c
000002c0: efd9 d7bc 0ff5 bcbd 1cbb 443c a93b b13c
000002d0: 5d49 c6bd d0d7 413d a227 333c f850 23bc
000002e0: 0ee8 7aba b97b 92bc 7246 d7bc 9636 bebd
000002f0: 1b10 643b 919e cabd 8d24 48bc 39cc 9a3c
00000300: 1271 993b 87d3 56bc c16c 053b c9e8 acbc
00000310: 8acf b8bd 8b8d dcbc bafa bebd e997 42bc
00000320: acf1 a23c e95c d2bb 9510 cfbd 0cef d0bd
00000330: 677d c6bc b4b2 373c 8ecb bbbc ef89 6dbc
00000340: d635 c0bd 9c5e 173c 7143 b9bd 84a5 c4bd
00000350: 78e5 cbbd f516 e4bb ed6f 01bd e266 2cbb
00000360: 0033 d43c 2f4b 6fbc 3010 12bc 9376 f9bb
00000370: c732 c9bd b36d e23c 170a cdbd 4156 abbc
00000380: 4972 0fbc 906f c7bd 90fc c1bc d4b4 cdbd
00000390: a170 aa3c df02 9fbb f5e1 573c 18b3 273b
000003a0: b069 70bc 1585 c2bd 0467 78bd 3c80 88bc
000003b0: 7cc9 cebc 8c34 b03c 4e61 06bc 1c37 cdbb
000003c0: 5c4b 8abb e6b9 80bc 3a18 edbc 7542 f7bc
000003d0: befb bcbd 76a8 8d3c 9171 f9bc 56a6 99bc
000003e0: 06f8 c1bd e6dc 253c c3d2 20bb 38b0 debc
000003f0: 418c d1bc 60aa b0bc 6d44 9bba 6be7 3dbd

sequential_1/dense_4/BiasAdd/ReadVariableOp f4 [64]
-0.0046029757 0.06480614 0.058128163 0.064874366 0.04789853 0.028759494 0.04276049 -0.020250902
0.14563245 0.15239869 0.02494707 0.057097256 0.064470254 0.122593805 0.12441617 0.06597825
0.0539358 0.07792365 0.09868488 0.15852636 0.07409737 0.11887695 0.13586639 0.12654458
0.0758836 0.006036422 0.11326974 0.15563455 0.11475131 0.14795153 0.108028546 0.109581105
0.014219644 0.08970039 0.0917693 0.021053402 0.16001268 0.10528976 0.094653055 0.118626714
0.06755141 0.04177417 0.12483966 0.102473155 0.041175466 0.04205184 0.16337855 0.1260837
0.21691938 0.16536671 0.10595689 0.07414839 0.08015686 0.089267135 0.11316891 0.16126077
0.13521452 0.14160876 0.109237425 0.023828419 0.10724349 0.04192313 0.09952693 0.09868866
00000000: 8fd4 96bb 15b9 843d cc17 6e3d dadc 843d
00000010: 4031 443d 0899 eb3c a025 2f3d 38e5 a5bc
00000020: ac20 153e 670e 1c3e cc5d cc3c d0de 693d
00000030: fb08 843d 7612 fb3d e8cd fe3d 9b1f 873d
00000040: c9eb 5c3d 6f96 9f3d 4c1b ca3d bc54 223e
00000050: 5dc0 973d c275 f33d 8f20 0b3e e794 013e
00000060: dc68 9b3d 2ecd c53b f7f9 e73d aa5e 1f3e
00000070: bc02 eb3d 9b80 173e 123e dd3d 0f6c e03d
00000080: 82f9 683c d7b4 b73d 8bf1 bb3d 2f78 ac3c
00000090: 5dda 233e 28a2 d73d 76d9 c13d 90f2 f23d
000000a0: 6558 8a3d 641b 2b3d f0ab ff3d 72dd d13d
000000b0: 9ba7 283d 8d3e 2c3d b54c 273e 161c 013e
000000c0: 1d20 5e3e e455 293e edff d83d 1cdb 973d
000000d0: 4829 a43d b0d1 b63d 1ac5 e73d 8b21 253e
000000e0: ad75 0a3e e301 113e dfb7 df3d d133 c33c
000000f0: 7aa2 db3d 97b7 2b3d c6d4 cb3d 481d ca3d

sequential_1/dense_3/BiasAdd/ReadVariableOp f4 [64]
0.11828666 0.16826771 0.30304542 0.22935252 0.19994025 0.23268373 0.24370237 0.016066425
0.20296876 0.1228589 0.1388065 0.18100841 0.28088847 0.22509575 0.19817212 0.13746925
0.17258252 0.18141867 0.24249347 0.13562372 0.10770236 0.24999271 0.23539025 0.10495122
0.20890494 0.19165213 0.2852049 0.1689032 0.13846304 0.24450104 0.25206873 0.13232481
0.17176093 0.22725365 -0.005662284 0.06390426 0.14608668 0.24068841 0.17386413 0.13772734
0.17941839 0.20304911 0.24702914 -0.04761689 0.32785213 0.18236224 0.14153452 0.2496395
0.2763639 0.0834177 0.20116095 0.18413384 0.13631761 0.21534067 0.30508155 0.31463653
0.31546694 0.11611099 0.24226552 0.102705084 0.33250266 0.22461212 0.18375602 0.21704318
00000000: 4740 f23d 5f4e 2c3e c528 9b3e 63db 6a3e
00000010: 23bd 4c3e a544 6e3e 1d8d 793e bc9d 833c
00000020: 0bd7 4f3e 729d fb3d 4b23 0e3e 455a 393e
00000030: 9dd0 8f3e 807f 663e a2ed 4a3e bdc4 0c3e
00000040: 79b9 303e d1c5 393e 3550 783e f2e0 0a3e
00000050: 0e93 dc3d 17fe 7f3e 240a 713e aaf0 d63d
00000060: 2deb 553e 7540 443e 6006 923e f6f4 2c3e
00000070: 41c9 0d3e 7b5e 7a3e 270f 813e 2880 073e
00000080: 19e2 2f3e 2eb5 683e ae8a b9bb 3de0 823d
00000090: bf97 153e 0677 763e 7009 323e 6508 0d3e
000000a0: 74b9 373e 1bec 4f3e 35f5 7c3e ee09 43bd
000000b0: 3cdc a73e 2bbd 3a3e 6dee 103e 7fa1 7f3e
000000c0: 927f 8d3e e6d6 aa3d 23fd 4d3e 958d 3c3e
000000d0: d896 0b3e 4482 5c3e a633 9c3e 0a18 a13e
000000e0: e284 a13e 99cb ed3d 7414 783e 0b57 d23d
000000f0: ca3d aa3e b800 663e 8a2a 3c3e 9140 5e3e

sequential_1/dense_3/MatMul f4 [64, 12]
-0.28565913 -0.082303986 0.35886547 -0.043085065 0.4447042 -0.13187467 -0.014428724 0.09532268
-0.329438 -0.18116388 0.08786611 0.3686275 0.3985967 0.44823584 0.40273017 0.33503643
0.20532352 -0.33210576 0.23289287 0.51747346 -0.14567935 -0.11952921 -0.23381253 -0.5010454
-0.3069483 -0.12629037 0.28223655 -0.01090733 0.42430863 -0.16616553 0.48370546 -0.1960082
-0.27548605 -0.018798845 0.268529 0.10901901 0.3137507 0.17043334 0.39143625 0.3108319
-0.23241515 0.1454403 -0.21229425 -0.10169603 0.38813996 0.0055085397 -0.1386017 0.348394
-0.1142181 0.34601808 -0.3823519 -0.014598855 -0.0722285 0.2165738 -0.51821923 0.2421507
-0.22631955 -0.37518805 -0.50886935 0.49269432 -0.19233695 0.2506648 0.012605406 -0.334076
-0.17320193 0.30687538 0.3824695 0.15296799 -0.5223246 -0.28116006 0.32174668 0.3528211
-0.25618112 -0.30396655 -0.3148926 0.44518274 0.21379048 -0.124973744 -0.16898842 0.2158378
0.2852929 0.062446747 -0.44869208 0.24284609 -0.26331732 0.40455416 0.061883472 0.23055623
0.022448888 -0.04537003 0.14972708 0.12435096 -0.22805226 -0.41193613 0.096967004 -0.17855944
-0.082278 0.22788762 0.23362903 0.3559105 -0.46616697 0.055969454 0.2759678 0.05856507
-0.20116481 -0.08558921 -0.33872893 0.4024078 -0.34753856 -0.25767925 -0.29110613 0.14652076
0.27620235 0.35699144 0.27539173 -0.15147981 0.12465426 -0.2511505 0.38026533 -0.4647129
-0.21179059 0.26708043 -0.32903156 -0.24106611 0.1302586 0.14831346 0.08400614 -0.103729405
-0.09346042 -0.15866813 -0.060097195 -0.2677903 0.36604422 -0.058849677 -0.12385095 0.20171572
-0.41131887 -0.3226865 0.13635124 -0.18516342 0.2153408 0.16762844 0.45196286 0.34287807
0.021097751 -0.025024327 -0.38989705 0.08325489 -0.31186214 0.05063101 0.29580733 0.24974869
0.28889692 0.21745591 -0.55913424 0.20468223 -0.009058378 0.08041346 -0.52010334 -0.39754277
0.011358918 0.093524754 0.3997074 0.27945364 0.192988 0.2540158 -0.46734363 0.2012456
0.2045379 -0.09521207 0.05367245 -0.5190163 -0.31937146 0.31497517 0.22578573 -0.050702818
0.08910901 -0.25632057 -0.5585171 -0.108154394 0.09815505 -0.19857034 -0.07081882 -0.19146328
-0.39894202 -0.22650553 -0.33829308 0.2256329 -0.15181066 0.22019136 0.34346932 0.47997332
-0.18622756 -0.18050255 -0.0024448438 0.07608705 -0.2180434 -0.04025291 -0.53514874 0.20287688
0.11230694 0.29653084 0.33966577 -0.48164696 0.27642453 0.1869643 0.11124798 0.44181702
-0.61011636 -0.19769204 -0.47331446 0.24269396 0.3842865 -0.1407244 0.01249645 0.1041228
0.13999656 0.023368165 0.32374772 0.25821424 -0.23348725 -0.4827712 0.27474338 0.17541166
0.2978642 0.017538672 -0.18908675 -0.17133412 0.22137891 -0.07309014 -0.07495498 -0.26392215
-0.47313946 -0.36052287 0.20700192 0.20190777 -0.42531207 0.19151725 0.48107952 -0.38358033
0.18781441 -0.018486785 -0.18611827 0.117570914 0.4976052 0.32395086 -0.06312069 0.3944665
-0.15045136 -0.25032964 0.01807544 0.17235044 0.14824308 0.052015726 -0.5644736 -0.053929634
00000000: ea41 92be fe8e a8bd 37bd b73e f779 30bd
00000010: 45b0 e33e 270a 07be 7466 6cbc 8a38 c33d
00000020: 19ac a8be 0683 39be 26f3 b33d bebc bc3e
00000030: de14 cc3e 2b7f e53e a632 ce3e e589 ab3e
00000040: 5440 523e c409 aabe 787b 6e3e 2479 043f
00000050: f82c 15be bbcb f4bd 8d6c 6fbe 8344 00bf
00000060: 5428 9dbe 4352 01be 4f81 903e a8b4 32bc
00000070: fb3e d93e 4c27 2abe 3ea8 f73e 60b6 48be
00000080: 820c 8dbe 0900 9abc a27c 893e 5c45 df3d
00000090: efa3 a03e 1486 2e3e 556a c83e 5c25 9f3e
000000a0: 3dfe 6dbe 4dee 143e aa63 59be 0246 d0bd
000000b0: 48ba c63e fb80 b43b 9bed 0dbe b360 b23e
000000c0: 2eeb e9bd 4829 b13e a1c3 c3be 0930 6fbc
000000d0: 89ec 93bd 86c5 5d3e 04aa 04bf 5af6 773e
000000e0: 50c0 67be a618 c0be 4345 02bf 6e42 fc3e
000000f0: faf3 44be 2357 803e e886 4e3c 020c abbe
00000100: d95b 31be c51e 9d3e 0bd3 c33e a4a3 1c3e
00000110: 11b7 05bf 36f4 8fbe fbbb a43e f8a4 b43e
00000120: 2c2a 83be 81a1 9bbe 9a39 a1be feee e33e
00000130: e4eb 5a3e 3cf2 ffbd 4d0b 2dbe 9604 5d3e
00000140: e911 923e 29c8 7f3d f8ba e5be a5ac 783e
00000150: 87d1 86be b921 cf3e 8679 7d3d ef16 6c3e
00000160: bbe6 b73c edd5 39bd 0e52 193e b7ab fe3d
00000170: 8886 69be 4be9 d2be a396 c63d 49d8 36be
00000180: 5e81 a8bd 5f5b 693e 733c 6f3e e739 b63e
00000190: 70ad eebe 3a40 653d a74b 8d3e ede1 6f3d
000001a0: 26fe 4dbe 6549 afbd e16d adbe 6508 ce3e
000001b0: 93f0 b1be 89ee 83be dd0b 95be 8a09 163e
000001c0: 656a 8d3e 95c7 b63e 2500 8d3e 861d 1bbe
000001d0: bc4a ff3d cc96 80be 23b2 c23e d9ee edbe
000001e0: a2df 58be c4be 883e d376 a8be 09da 76be
000001f0: 8362 053e 7cdf 173e 690b ac3d 1570 d4bd
00000200: 2d68 bfbd e679 22be 7a28 76bd cf1b 89be
00000210: 266a bb3e 5c0c 71bd 91a5 fdbd 918e 4e3e
00000220: 6398 d2be 2a37 a5be a99f 0b3e 7b9b 3dbe
00000230: 4c82 5c3e caa6 2b3e ad67 e73e b78d af3e
00000240: 31d5 ac3c d1ff ccbc 96a0 c7be 8a81 aa3d
00000250: 65ac 9fbe 7662 4f3d 0f74 973e 1fbe 7f3e
00000260: 4cea 933e c3ac 5e3e 6c23 0fbf 3898 513e
00000270: 9769 14bc d0af a43d 7e25 05bf ba8a cbbe
00000280: c11a 3a3c e889 bf3d 73a6 cc3e 8c14 8f3e
00000290: a59e 453e 5c0e 823e aa47 efbe 5413 4e3e
000002a0: 6272 513e 8cfe c2bd a5d7 5b3d 41de 04bf
000002b0: a884 a3be 6d44 a13e 6034 673e c2ad 4fbd
000002c0: c97e b63d 733c 83be fafa 0ebf 0d80 ddbd
000002d0: 8405 c93d 0656 4bbe 7509 91bd f30e 44be
000002e0: 2142 ccbe 11f1 67be c034 adbe 500c 673e
000002f0: 4174 1bbe d879 613e 36db af3e 10bf f53e
00000300: 70b2 3ebe a9d5 38be ac39 20bb 87d3 9b3d
00000310: c546 5fbe 3ce0 24bd 82ff 08bf f5be 4f3e
00000320: 2e01 e63d e4d2 973e ace8 ad3e 6e9a f6be
00000330: 8487 8d3e 9273 3f3e fbd5 e33d d735 e23e
00000340: 9630 1cbf c86f 4abe 4656 f2be c484 783e
00000350: 33c1 c43e 0f1a 10be e9bd 4c3c 563e d53d
00000360: 425b 0f3e 986e bf3c 43c2 a53e a834 843e
00000370: 4817 6fbe c92d f7be 2aab 8c3e 1d9f 333e
00000380: a881 983e 43ad 8f3c f59f 41be 3672 2fbe
00000390: 27b1 623e 49b0 95bd ff81 99bd ce20 87be
000003a0: 563f f2be 7496 b8be 50f8 533e e9c0 4e3e
000003b0: 81c2 d9be 191d 443e 0e50 f63e a464 c4be
000003c0: 6c52 403e 9971 97bc ca95 3ebe 05c9 f03d
000003d0: 1cc6 fe3e e3dc a53e 6c45 81bd 83f7 c93e
000003e0: ec0f 1abe 352b 80be f212 943c a27c 303e
000003f0: 09cd 173e 710e 553d 5881 10bf 52e5 5cbd

sequential_1/dense_4/MatMul f4 [64, 64]
0.0032994167 0.1589796 -0.13866568 -0.1155089 0.061894678 0.20080191 0.07569042 0.18905216
-0.112230875 0.1964673 -0.119201675 -0.0449703 -0.099150464 0.02588214 0.114219785 0.09172364
0.29556563 0.2039646 -0.0124330865 0.05096172 -0.2860905 0.0077465544 -0.06324586 -0.06825485
0.007047777 -0.1948865 -0.025980575 0.023957755 0.0125854835 0.041096825 0.15473852 -0.051260255
-0.18133514 -0.0039501907 0.046220094 0.23338722 -0.16462009 0.07110756 0.2071977 0.19396654
-0.0075150947 0.16449833 0.019065894 -0.15470485 0.2424834 -0.025126552 -0.14350732 -0.19296415
0.19591393 0.08194513 -0.16224591 0.28687695 -0.0659736 -0.21032041 0.30609038 0.23960993
0.14006437 -0.18079446 0.10219961 0.19366108 -0.07431916 -7.800947e-05 -0.07414294 0.17980301
0.08175187 0.11080681 -0.052888855 0.1568948 -0.0913614 0.056336056 0.26100188 0.1729963
0.031832196 0.18209872 0.14711465 0.09418172 -0.1640714 -0.18872708 -0.09440885 0.019592876
-0.114166826 0.18732251 0.12742387 -0.16528057 0.18733607 -0.2239445 -0.09316751 -0.18237618
0.1674304 -0.20710422 0.2636684 -0.06345719 0.03455533 0.077710874 -0.07557762 0.15345249
0.18486573 0.14163196 0.12186326 -0.19821048 -0.05266081 0.07056176 0.29749385 -0.0534219
-0.04067129 -0.05445699 0.34548837 -0.11844065 -0.30273375 0.0773613 0.3244772 0.016472738
0.071176335 0.0981509 -0.2401432 0.16011642 0.12245962 0.11038757 0.1822324 0.12205981
0.22209506 -0.23872429 0.031206723 0.16801225 0.21317662 -0.07013253 0.095382 0.17848802
0.31838837 0.0090314 0.10278531 -0.27543488 0.043324295 0.24927707 0.01333809 0.16346082
0.2829907 0.25179827 -0.05143466 0.03578655 0.2030539 0.0014103709 0.08087079 -0.22944176
0.0059098597 -0.13519935 -0.0726952 0.01731302 -0.062256396 0.077658534 -0.037199497 0.11262295
-0.3347107 -0.23085237 -0.07804957 -0.1022986 0.030168202 -0.21850437 0.3544975 -0.07656181
0.16575046 0.041978404 0.18945429 -0.029705497 0.28372955 0.006456821 0.19539784 0.10785566
0.13748199 -0.19612928 0.032424394 0.035841797 -0.04398302 0.24172658 0.18515153 0.055630397
0.034217577 0.13964812 0.13209371 -0.074207015 0.16405524 0.08372647 0.32285914 0.03686118
-0.0467438 0.18986608 0.0249376 -0.038746875 -0.017818622 0.105874896 -0.15279667 0.3070029
0.25196323 0.07404789 -0.14701316 0.06353211 0.31397402 0.17083395 -0.010930754 -0.055286013
0.32529154 -0.32806024 -0.118973635 0.16419375 -0.111161985 -0.15097433 -0.06665155 -0.1130423
0.20890957 0.2963961 0.045703087 0.11411226 -0.0036056712 0.06352365 -0.11363999 0.12935343
0.15344806 0.27886853 0.33653688 -0.020172026 0.16748378 0.23780553 0.27100733 0.20104359
0.03152866 0.19051817 0.25842533 -0.13972603 0.034025874 -0.26014388 -0.17799594 0.06466878
0.28528693 0.09130096 -0.08845607 -0.026793597 0.10760867 0.2180637 -0.013824253 0.14774348
0.2174949 0.05571523 0.072951086 0.24721858 -0.13971661 -0.24888285 0.016271567 -0.22910178
-0.06541438 0.110778406 0.06346659 -0.01020109 0.28724527 -0.25622177 -0.032300893 0.0668027
00000000: 073b 583b 8ccb 223e 60fe 0dbe ee8f ecbd
00000010: 4685 7d3d 049f 4d3e 9403 9b3d e496 413e
00000020: 4dd9 e5bd b92e 493e 0220 f4bd c732 38bd
00000030: 660f cbbd c806 d43c 10ec e93d 9bd9 bb3d
00000040: 6154 973e 19dc 503e 25b4 4bbc 3dbd 503d
00000050: 747a 92be cfd6 fd3b 0c87 81bd 33c9 8bbd
00000060: 0af1 e63b 5490 47be 37d5 d4bc 0e43 c43c
00000070: 5833 4e3c 2555 283d c673 1e3e 46f6 51bd
00000080: ebaf 39be 9a70 81bb 4851 3d3d 0ffd 6e3e
00000090: 2b92 28be d7a0 913d a22b 543e 2a9f 463e
000000a0: 2f41 f6bb 4072 283e 1430 9c3c f36a 1ebe
000000b0: 924d 783e 33d6 cdbc 95f3 12be 6598 45be
000000c0: a99d 483e d9d2 a73d cb23 26be 89e1 923e
000000d0: 2b1d 87bd 3c5e 57be e1b7 9c3e 4e5c 753e
000000e0: 096d 0f3e 2f22 39be 074e d13d 174f 463e
000000f0: a534 98bd 0499 a3b8 41d8 97bd 481e 383e
00000100: 866d a73d aeee e23d fca1 58bd 08a9 203e
00000110: b01b bbbd a3c0 663d 0aa2 853e f125 313e
00000120: 7a62 023d 1678 3a3e 39a5 163e 58e2 c03d
00000130: 5502 28be ac41 41be 6d59 c1bd 3d81 a03c
00000140: 4cd0 e9bd 79d1 3f3e 677b 023e 4f3f 29be
00000150: 07d5 3f3e b551 65be 9cce bebd d2c0 3abe
00000160: e072 2b3e 2113 54be 8bff 863e d8f5 81bd
00000170: e489 0d3d e126 9f3d 70c8 9abd a622 1d3e
00000180: 714d 3d3e f807 113e 7293 f93d b0f7 4abe
00000190: ddb2 57bd af82 903d 1d51 983e ecd0 5abd
000001a0: f096 26bd 4b0e 5fbd dae3 b03e 0391 f2bd
000001b0: ebff 9abe 9a6f 9e3d e021 a63e d6f1 863c
000001c0: e6c4 913d 5703 c93d 19e8 75be 8ff5 233e
000001d0: 1ccc fa3d e112 e23d 219b 3a3e 7efa f93d
000001e0: e36c 633e 2474 74be 3ea5 ff3c 670b 2c3e
000001f0: f94a 5a3e a5a1 8fbd a357 c33d 90c5 363e
00000200: cd03 a33e 70f8 133c 1b81 d23d cd05 8dbe
00000210: d174 313d 7d42 7f3e 0188 5a3c 4662 273e
00000220: 28e4 903e b4eb 803e 26ad 52bd eb94 123d
00000230: 5ded 4f3e 32dc b83a 969f a53d c8f2 6abe
00000240: 7fa7 c13b b371 0abe 39e1 94bd 09d4 8d3c
00000250: 9000 7fbd 700b 9f3d 805e 18bd dca6 e63d
00000260: 335f abbe 9064 6cbe 74d8 9fbd ee81 d1bd
00000270: 4e23 f73c 9cbf 5fbe b280 b53e 70cc 9cbd
00000280: 7dba 293e 8cf1 2b3d 4e00 423e f158 f3bc
00000290: 0045 913e be93 d33b 5f16 483e 6ee3 dc3d
000002a0: 14c8 0c3e 1dd6 48be 71cf 043d d9ce 123d
000002b0: 8a27 34bd 2c87 773e 5d98 3d3e b3dc 633d
000002c0: bb27 0c3d ebff 0e3e 9343 073e d9f9 97bd
000002d0: 19fe 273e c978 ab3d cb4d a53e c0fb 163d
000002e0: 6d76 3fbd 416c 423e f049 cc3c 0bb5 1ebd
000002f0: 5cf8 91bc f0d4 d83d bb76 1cbe 7c2f 9d3e
00000300: 5301 813e 6ca6 973d 9e8a 16be 1f1d 823d
00000310: 34c1 a03e 18ef 2e3e e816 33bc 9673 62bd
00000320: 9d8c a63e 83f7 a7be 73a8 f3bd 6822 283e
00000330: e5a8 e3bd 0499 1abe 9c80 88bd b982 e7bd
00000340: 64ec 553e 3bc1 973e 2933 3b3d b0b3 e93d
00000350: 204d 6cbb b018 823d 15bc e8bd 3a75 043e
00000360: 7d21 1d3e dbc7 8e3e 904e ac3e ce3f a5bc
00000370: de80 2b3e 4b83 733e 79c1 8a3e 5fde 4d3e
00000380: 3224 013d 3217 433e 5350 843e 5714 0fbe
00000390: b75e 0b3d 9431 85be 9144 36be 1171 843d
000003a0: 2111 923e fffb ba3d 7528 b5bd 3f7e dbbc
000003b0: ef61 dc3d 174c 5f3e 1f7f 62bc 114a 173e
000003c0: fcb6 5e3e a735 643d 6167 953d de26 7d3e
000003d0: df11 0fbe 25db 7ebe f34b 853c a899 6abe
000003e0: f9f7 85bd cadf e23d c6fa 813d 7922 27bc
000003f0: d011 933e 802f 83be f14d 04bd dbcf 883d

sequential_1/dense_5/MatMul f4 [561, 64]
-0.2195763 -0.1561996 0.0059677497 -0.22233818 -0.06339704 -0.046526935 0.04597669 0.028405532
-0.2848535 -0.40373552 -0.00071793934 -0.000267028 -0.0645387 -0.61023813 -0.097333945 -0.64835894
-0.04459325 -0.28745112 0.06547805 -0.5989078 -0.25982636 0.10101052 0.091903314 -0.15097608
-0.28356072 -0.022693044 0.014734367 -0.25424412 0.022358973 -0.04686597 0.08021461 -0.3473592
-0.33703583 -0.051451106 0.019685425 0.026903532 -0.07892116 0.018115455 -0.11658661 -0.12636654
-0.035642438 0.025150718 -0.03566459 -0.018834157 0.05096419 -0.25391862 -0.062017355 0.055623204
-0.6419611 -0.52193016 -0.04404009 -0.41753834 -0.23317532 0.03331859 -0.055179417 -0.53014046
-0.27562478 -0.5914314 -0.52906233 -0.11699946 0.013621312 -0.16165288 0.11595278 -0.33290908
0.04242858 -0.064953126 0.0037281534 -0.15222871 -0.07430995 -0.039756108 -0.13124284 0.05970828
-0.012242716 -0.5141645 -0.07952855 0.08927077 -0.018611874 -0.05275865 -0.024507342 -0.17455858
0.05582541 -0.08546795 -0.073077634 -0.1578691 0.0016831396 -0.04102517 -0.06179108 0.034778126
-0.009127925 -0.054034624 0.07221967 -0.15924886 -0.15307263 -0.039431617 -0.045990743 -0.037024494
0.06513936 -0.058423236 -0.006492007 -0.12464694 -0.09676602 -0.043827426 0.029743664 0.03630011
-0.01363029 -0.05534611 -0.011416884 -0.076070294 0.075896025 -0.1784554 -0.13454507 0.120737284
-0.86038476 -0.16597152 -0.07825128 -0.0042956052 0.027757932 0.06693803 -0.010565871 -0.07602472
-0.3883585 -0.119635075 -0.10156102 0.0693109 -0.13664392 0.031109253 0.02434368 0.051856894
-0.16063714 -0.16860256 -0.18804853 0.008560709 -0.094639935 -0.22971606 0.018920697 -0.06569909
-0.09155355 -0.054260023 0.035289824 0.116233364 -0.15999274 -0.5019533 -0.071351655 0.1392425
-0.42484578 0.011025073 -0.017626308 -0.5419716 -0.043790586 -0.6601269 -0.034987863 -0.11355804
0.072525494 -0.009796379 -0.35561076 -0.43063053 -0.46622437 -0.53002775 -0.20980929 -0.15804738
0.066219665 0.08865728 0.04678648 -0.027434804 -0.025307026 0.11498571 -0.41620725 -0.48404503
-0.12785915 0.027313933 -0.12441218 -0.49625507 -0.045513846 -0.077980496 0.009287274 0.006780394
-0.6718316 -0.01632526 -0.0055092024 0.014398593 0.032049544 -0.07639247 -0.29087168 -0.636596
0.015359342 -0.64851284 -0.4723451 -0.26602086 -0.1186966 -0.23238763 -0.0030948303 -0.054207146
0.0040927897 -0.10456273 -0.098930255 -0.09997788 -0.0048555345 0.006797569 0.06536215 0.07656456
-0.042549103 -0.52353907 -0.09556176 0.032437332 -0.034791533 -0.08054403 -0.042329673 0.051635817
-0.48402056 -0.054431144 -0.030995797 -0.529303 -0.044166453 -0.1375232 -0.09974315 -0.10641589
-0.11234555 0.11762542 -0.11600312 -0.6835394 -0.09132827 -0.050415974 -0.3414604 -0.028126305
-0.097870655 -0.3226986 -0.092259526 0.06884394 -0.39830127 -0.16141385 -0.10062655 -0.14518556
-0.34577644 -0.040471476 0.088303536 -0.54480326 -0.032643244 -0.02142403 0.025249794 -0.008936034
-0.5128079 -0.07457886 -0.44178966 -0.021567255 0.048384745 -0.032588996 -0.254878 -0.111341305
0.09383478 -0.13607511 -0.21149932 -0.15061413 -0.0057997084 0.063893214 0.024579976 -0.03387239
00000000: 9cd8 60be caf2 1fbe 1d8d c33b 9fac 63be
00000010: 4fd6 81bd 0793 3ebd 0e52 3c3d b8b2 e83c
00000020: 51d8 91be 6cb6 cebe 1834 3cba e4ff 8bb9
00000030: de2c 84bd 9138 1cbf 0557 c7bd dafa 25bf
00000040: 69a7 36bd cb2c 93be 5b19 863d 0652 19bf
00000050: f607 85be 9ade ce3d ce37 bc3d 7999 1abe
00000060: df2e 91be c3e6 b9bc 6a68 713c 492c 82be
00000070: 2a2a b73c 88f6 3fbd 8f47 a43d 11d9 b1be
00000080: f68f acbe 65be 52bd 5443 a13c cc64 dc3c
00000090: 6ba1 a1bd dd66 943c f6c4 eebd 3b66 01be
000000a0: cefd 11bd e108 ce3c 0815 12bd 174a 9abc
000000b0: d4bf 503d 9f01 82be e905 7ebd 28d5 633d
000000c0: 9057 24bf 379d 05bf 6263 34bd 96c7 d5be
000000d0: 83c5 6ebe 1379 083d d003 62bd 49b7 07bf
000000e0: b11e 8dbe 0c68 17bf a170 07bf 6a9d efbd
000000f0: ec2b 5f3c 5588 25be a778 ed3d 0f73 aabe
00000100: 97c9 2d3d 2506 85bd 0954 743b d8e1 1bbe
00000110: d12f 98bd 4dd7 22bd 8664 06be ab90 743d
00000120: ac95 48bc 49a0 03bf dddf a2bd 98d3 b63d
00000130: ee77 98bc 7419 58bd 9fc3 c8bc 7cbf 32be
00000140: 2fa9 643d d209 afbd baa9 95bd 70a8 21be
00000150: cb9c dc3a 020a 28bd a518 7dbd 8273 0e3d
00000160: 4b8d 15bc 6953 5dbd e8e7 933d 2212 23be
00000170: 12bf 1cbe 0c83 21bd ca60 3cbd ffa6 17bd
00000180: c967 853d 344d 6fbd e7ba d4bb e546 ffbd
00000190: 432d c6bd 6384 33bd fca8 f33c 6daf 143d
000001a0: 9451 5fbc 9ab2 62bd e20d 3bbc beca 9bbd
000001b0: 606f 9b3d 03bd 36be 2fc6 09be 1c45 f73d
000001c0: 2d42 5cbf 70f4 29be 3542 a0bd 26c2 8cbb
000001d0: 9a64 e33c ce16 893d 7a1c 2dbc d9b2 9bbd
000001e0: edd6 c6be 3c03 f5bd 39ff cfbd e0f2 8d3d
000001f0: 62ec 0bbe d5d8 fe3c 666c c73c e567 543d
00000200: 107e 24be 26a6 2cbe cb8f 40be 3742 0c3c
00000210: 95d2 c1bd b03a 6bbe 94ff 9a3c 3f8d 86bd
00000220: 6d80 bbbd c23f 5ebd 108c 103d c20b ee3d
00000230: 23d5 23be 0380 00bf d120 92bd 9695 0e3e
00000240: 6385 d9be 82a2 343c 0c65 90bc a7be 0abf
00000250: c25d 33bd 14fe 28bf 6f4f 0fbd 1e91 e8bd
00000260: 3f88 943d fe80 20bc 9d12 b6be 9b7b dcbe
00000270: f6b4 eebe e6af 07bf 3fd8 56be 2cd7 21be
00000280: 2d9e 873d f391 b53d 2ea3 3f3d f4be e0bc
00000290: ae50 cfbc a17d eb3d 1e19 d5be c0d4 f7be
000002a0: 82ed 02be 78c1 df3c d0cb febd 2515 febe
000002b0: ba6c 3abd 3db4 9fbd a729 183c 112e de3b
000002c0: 28fd 2bbf 8dbc 85bc 8a86 b4bb 14e8 6b3c
000002d0: 6246 033d a873 9cbd 22ed 94be f5f7 22bf
000002e0: c0a5 7b3c f004 26bf 38d7 f1be e333 88be
000002f0: 3417 f3bd 06f7 6dbe a3d2 4abb 5008 5ebd
00000300: cf1c 863b fc24 d6bd f29b cabd 34c1 ccbd
00000310: 2d1b 9fbb 24be de3b 97dc 853d e1cd 9c3d
00000320: f847 2ebd a806 06bf e2b5 c3bd 02dd 043d
00000330: 9181 0ebd 45f4 a4bd e161 2dbd 1480 533d
00000340: 8bd1 f7be 31f3 5ebd e6ea fdbc 6780 07bf
00000350: e2e7 34bd e2d2 0cbe 2346 ccbd 93f0 d9bd
00000360: 6c15 e6bd 99e5 f03d 0b93 edbd 70fc 2ebf
00000370: 510a bbbd fb80 4ebd e6d3 aebe 2369 e6bc
00000380: 6970 c8bd c038 a5be 90f2 bcbd 0dfe 8c3d
00000390: 25ee cbbe ac49 25be 4b15 cebd 86ab 14be
000003a0: 9c09 b1be 6bc5 25bd 7cd8 b43d 3a78 0bbf
000003b0: ecb4 05bd 7381 afbc a8d8 ce3c 7168 12bc
000003c0: 6147 03bf cdbc 98bd 4132 e2be d0ad b0bc
000003d0: 152f 463d 0a7c 05bd 5f7f 82be e906 e4bd
000003e0: 732c c03d 4657 0bbe 4793 58be 973a 1abe
000003f0: 7b0b bebb 72da 823d f25b c93c c6bd 0abd
